…
5339/5339 [==============================] - 1s 133us/step
Evaluation Scores for Training Data 
[0.1826297984187695, 1.0, 0.8998777270317078, 0.0]
Evaluation Scores for Testing Data 
[0.18253439192603113, 1.0, 0.8999812602996826, 0.0]
........................Weight Prediction as a Regression Problem..................................


Weight Prediction Scores for bitcoin OTC dataset
[234.23087589]
Model: "sequential_1"
_________________________________________________________________
Layer (type)                 Output Shape              Param #   
=================================================================
dense_1 (Dense)              (None, 256)               131328    
_________________________________________________________________
dropout_1 (Dropout)          (None, 256)               0         
_________________________________________________________________
dense_2 (Dense)              (None, 128)               32896     
_________________________________________________________________
dropout_2 (Dropout)          (None, 128)               0         
_________________________________________________________________
dense_3 (Dense)              (None, 85)                10965     
_________________________________________________________________
dense_4 (Dense)              (None, 64)                5504      
_________________________________________________________________
dense_5 (Dense)              (None, 1)                 65        
=================================================================
Total params: 180,758
Trainable params: 180,758
Non-trainable params: 0
_________________________________________________________________
None
Epoch 1/20

  128/30253 [..............................] - ETA: 2:21 - loss: 0.3119 - R_squared: -12.9982 - mean_squared_logarithmic_error: 0.1926
  640/30253 [..............................] - ETA: 30s - loss: 0.1972 - R_squared: -8.0035 - mean_squared_logarithmic_error: 0.1101  
…
